Spring2023/Machine_Learning/AutoML/models/NeuralNetFastAI/model-internals.pkl (torch, 135459 bytes, 16 tensors)

weight f4 [15]
1.0154828 0.9845844 1.0330482 0.97539765 1.0062202 1.0167 0.981285 1.0002847
0.97033566 0.9754602 1.0028694 0.9942243 0.9986434 1.0129396 1.0303042
00000000: 57fb 813f b90d 7c3f ec3a 843f a9b3 793f
00000010: d3cb 803f 3a23 823f 7e35 7b3f 5409 803f
00000020: eb67 783f c2b7 793f 065e 803f 7c85 7e3f
00000030: 18a7 7f3f 01a8 813f 02e1 833f

bias f4 [15]
0.02351785 -0.020349018 -0.014022762 0.014721381 0.024110155 0.036682285 0.022031562 0.010555024
0.02920965 0.04047598 0.009725715 0.03159418 -0.032804273 -0.029409662 0.0095827365
00000000: 82a8 c03c fcb2 a6bc babf 65bc f231 713c
00000010: a982 c53c 2a40 163d 897b b43c fbee 2c3c
00000020: 1349 ef3c 24ca 253d 9b58 1f3c e668 013d
00000030: c65d 06bd 88ec f0bc e900 1d3c

running_mean f4 [15]
-0.002527191 -0.002527191 -0.0076168245 0.0057791355 -0.0018240645 -0.005191402 0.0027779082 0.0051511433
0.004160418 -0.0077442327 -0.00434062 -0.0031348504 0.0063454537 0.002303301 -0.007254835
00000000: 3b9f 25bb 3b9f 25bb 8e96 f9bb e75e bd3b
00000010: 7315 efba a31c aabb 910d 363b ecca a83b
00000020: 1e54 883b 55c3 fdbb c23b 8ebb 1072 4dbb
00000030: 86ed cf3b faf2 163b f8b9 edbb

running_var f4 [15]
0.9987172 0.9987172 1.005001 1.0178092 1.0013742 0.9909515 0.9975489 1.0087919
1.0070506 0.98866177 0.98876435 1.0013645 1.0086714 1.0027001 1.0016047
00000000: eeab 7f3f eeab 7f3f dfa3 803f 9247 823f
00000010: 082d 803f ffae 7d3f 5d5f 7f3f 1820 813f
00000020: 09e7 803f f018 7d3f a91f 7d3f b62c 803f
00000030: 251c 813f 7a58 803f 9534 803f

weight f4 [200, 15]
0.016213208 0.15641971 -0.22049382 -0.17595135 -0.099878244 0.05107339 0.009196372 0.2083053
0.0073250555 0.059494957 -0.0884322 -0.07197997 -0.24923618 -0.1445166 -0.12128414 0.010673562
0.103235215 0.17122643 -0.16442528 -0.1131671 0.06389847 0.23575437 -0.059796356 0.19059457
-0.03183156 0.04367288 0.20817764 -0.24899717 -0.18545657 -0.04610979 -0.13242316 0.19150726
-0.17481011 -0.13087867 -0.18484537 -0.23572819 -0.16473654 0.23513995 0.09896828 0.08595626
0.005024777 -0.13256206 0.049979568 -0.2302324 -0.19551708 -0.12017674 0.17558345 0.15660045
-0.12195876 -0.016679447 0.14253655 0.2774843 0.09583385 0.012214161 0.16072732 -0.16277164
0.033053264 -0.21238899 -0.1735796 -0.13165998 0.097134665 0.08398939 -0.1472833 0.0698228
0.15348849 -0.052636288 0.021405 0.061351523 0.15251516 0.24999867 -0.210548 -0.09082415
0.08703298 0.25169787 0.22227626 0.19767381 0.021642905 -0.25028634 0.025168486 -0.15241249
-0.21739481 0.24306622 0.17684749 -0.2525594 0.03900335 -0.031711876 -0.043366544 -0.102595404
0.13186914 -0.18206596 0.11356674 0.14952525 0.160088 0.07178213 -0.22026531 -0.14214988
0.14656582 0.065582685 -0.23342182 -0.17746222 0.22393328 0.1915859 -0.12746999 -0.0384965
-0.2759467 -0.024847118 -0.21451616 -0.18298624 -0.030634303 0.05242675 -0.11660992 0.1674193
-0.18521944 0.21676794 0.19002652 -0.23810592 -0.044469696 -0.0032608875 0.024333173 0.07831661
0.10566435 0.019805847 -0.1438705 0.14679016 -0.24711145 -0.14740531 -0.06584857 -0.13680258
-0.070220105 -0.22885202 -0.04136069 0.046790753 -0.13871217 -0.017611288 0.17507471 -0.010066736
0.023634959 -0.001788103 0.05109646 0.16068636 0.24958917 0.1539419 0.24993557 -0.038658246
-0.22754773 -0.113583736 0.2047983 -0.021890255 -0.11656495 -0.1831055 -0.25457105 -0.23069118
-0.07597018 0.17250197 0.12952021 -0.24560237 0.14978933 -0.20460457 -0.009856587 -0.1177218
-0.06716007 -0.06133497 -0.20804606 -0.20521347 -0.062628865 0.035228223 -0.085592896 0.07906438
-0.21131149 -0.033197366 0.2509548 -0.11285074 0.22396888 0.11474898 -0.23976758 0.15099275
-0.016673427 -0.097452715 0.21836792 -0.2265929 0.02567296 -0.05618818 0.19466178 0.09866428
0.13056329 0.080598176 -0.0395317 -0.08571944 -0.18971103 0.14074136 0.23795068 0.15045021
-0.1818076 0.003338052 -0.17097992 -0.12492876 -0.13327292 0.06447937 -0.13372178 -0.013607409
0.036524426 0.1345273 -0.21908356 -0.16015452 -0.17450929 0.177451 -0.10358586 0.24079873
0.11161287 0.009710034 -0.021198006 -0.07027802 0.05011476 -0.06943787 0.027802184 0.0006920155
-0.20813204 -0.13172168 0.20774892 -0.19853267 -0.03729049 0.26808175 0.08112994 -0.0064817397
-0.19980812 0.13747203 -0.17415115 -0.064095914 -0.08087592 -0.065637216 0.013470043 0.21277441
0.029342076 0.23150377 0.15353504 -0.13523999 0.114960596 -0.18842146 -0.119218536 0.08786701
0.07790982 0.18627726 -0.08086019 -0.0128346635 0.16017331 -0.23960932 0.17891984 -0.20576113
-0.006064089 -0.029610848 -0.15884946 0.030227605 0.19100407 -0.052028496 -0.16845185 -0.122911595
00000000: 90d1 843c 7d2c 203e 22c9 61be 972c 34be
00000010: f78c ccbd 5532 513d 61ac 163c fc4d 553e
00000020: 0507 f03b fcb0 733d f11b b5bd 3c6a 93bd
00000030: c537 7fbe 29fc 13be d263 f8bd 2ae0 2e3c
00000040: fc6c d33d fb55 2f3e 1a5f 28be 27c4 e7bd
00000050: 33dd 823d 9869 713e 06ed 74bd 392b 433e
00000060: cf61 02bd 55e2 323d 852c 553e 1df9 7ebe
00000070: 54e8 3dbe 9fdd 3cbd f099 07be 7b1a 443e
00000080: 6c01 33be 0f05 06be 1b48 3dbe bb62 71be
00000090: b2b0 28be 87c8 703e e2af ca3d d609 b03d
000000a0: e2a6 a43b 59be 07be 60b7 4c3d 0bc2 6bbe
000000b0: a135 48be 391f f6bd 26cc 333e de5b 203e
000000c0: 84c5 f9bd 56a3 88bc 1af5 113e 6c12 8e3e
000000d0: 8a44 c43d e81d 483c b495 243e 9cad 26be
000000e0: dc62 073d 807c 59be dabe 31be e0d1 06be
000000f0: 8aee c63d a102 ac3d 6fd1 16be 42ff 8e3d
00000100: 162c 1d3e 2699 57bd 8a59 af3c bc4b 7b3d
00000110: ef2c 1c3e a7ff 7f3e e599 57be 0302 babd
00000120: 593e b23d 8bde 803e 639c 633e 016b 4a3e
00000130: 764c b13c 8825 80be 242e ce3c 0512 1cbe
00000140: bf9c 5ebe 5ae6 783e 8217 353e 774f 81be
00000150: fac1 1f3d 50e4 01bd 1ea1 31bd 8a1d d2bd
00000160: b408 073e 806f 3abe ae95 e83d 261d 193e
00000170: 1cee 233e 8202 933d 3b8d 61be bd8f 11be
00000180: 5a15 163e 3750 863d 2106 6fbe a8b8 35be
00000190: c44e 653e 182f 443e 7e87 02be 82ae 1dbd
000001a0: e348 8dbe 2f8c cbbc 20aa 5bbe bf60 3bbe
000001b0: caf4 fabc 6fbd 563d 2fd1 eebd f76f 2b3e
000001c0: 2aaa 3dbe 6af8 5d3e 5096 423e 0ad2 73be
000001d0: db25 36bd 9db4 55bb 5d56 c73c 7564 a03d
000001e0: 8d66 d83d df3f a23c ca52 13be 2950 163e
000001f0: c90a 7dbe 6bf1 16be 9ddb 86bd fa15 0cbe
00000200: 8fcf 8fbd 2f58 6abe d469 29bd a9a7 3f3d
00000210: 900a 0ebe 8c45 90bc c946 333e f3ee 24bc
00000220: 1a9e c13c c85e eaba 864a 513d f78a 243e
00000230: 4e94 7f3e f2a2 1d3e 1cef 7f3e 1c58 1ebd
00000240: 4602 69be 979e e8bd a5b6 513e 3153 b3bc
00000250: 9bb9 eebd 0280 3bbe 2357 82be 4f3a 6cbe
00000260: 4196 9bbd 5ba4 303e f2a0 043e 307f 7bbe
00000270: 6062 193e dc83 51be 867d 21bc 2118 f1bd
00000280: 388b 89bd 613a 7bbd 070a 55be 7b23 52be
00000290: 9043 80bd 784b 103d 544b afbd 81ec a13d
000002a0: 0a62 58be f6f9 07bd 267d 803e 4a1e e7bd
000002b0: 1958 653e 8301 eb3d a285 75be d89d 1a3e
000002c0: b696 88bc 4a95 c7bd d79b 5f3e f807 68be
000002d0: 1950 d23c 9425 66bd 6b55 473e 7f10 ca3d
000002e0: 62b2 053e a810 a53d feeb 21bd ac8d afbd
000002f0: 9c43 42be 811e 103e 58a9 733e 9f0f 1a3e
00000300: c62b 3abe 38c3 5a3b 5c15 2fbe a6da ffbd
00000310: b278 08be c30d 843d 5dee 08be 9cf1 5ebc
00000320: a39a 153d 86c1 093e 7157 60be 8cff 23be
00000330: 90b2 32be b7b5 353e d324 d4bd f193 763e
00000340: 4a95 e43d d616 1f3c 71a7 adbc eced 8fbd
00000350: 2245 4d3d 7135 8ebd 68c1 e33c 6068 353a
00000360: 9120 55be 0ce2 06be 22bc 543e 264c 4bbe
00000370: eabd 18bd 0342 893e 7427 a63d c664 d4bb
00000380: 809a 4cbe 78c5 0c3e ae54 32be b844 83bd
00000390: 46a2 a5bd ce6c 86bd 75b1 5c3c 89e1 593e
000003a0: cb5e f03c 530f 6d3e 4a38 1d3e 5a7c 0abe
000003b0: 7670 eb3d 8ef1 40be d928 f4bd 9ef3 b33d
000003c0: 2f8f 9f3d 77bf 3e3e 079a a5bd 7b48 52bc
000003d0: 7904 243e 255c 75be c336 373e 0cb3 52be
000003e0: 44b5 c6bb 7392 f2bc 6fa9 22be e29f f73c
000003f0: 9296 433e d51b 55bd a47e 2cbe 13b9 fbbd

weight f4 [200]
0.9954316 1.0303339 0.97980833 0.986943 1.0082365 1.014653 0.9680534 0.9835303
0.97553223 1.0096096 0.98849446 1.0296625 1.01215 0.98362726 0.9923289 1.0285939
0.9854948 1.0098399 0.9817495 0.9858734 0.9979515 0.9856945 0.98070955 0.99211234
0.99322647 0.9994032 1.0216261 0.98951435 1.0040298 1.0146116 1.0149533 0.99345565
0.9832739 0.98966014 1.0021498 1.0044338 1.0237556 0.98364997 0.98018336 0.9964933
0.9901181 1.0324516 0.98371166 1.0272266 0.9764641 0.98952633 1.0247152 0.99110276
1.0084182 0.99943787 1.0101371 0.9970835 0.9960198 0.9907354 1.0108935 1.0059695
0.9892142 1.0053923 1.0025448 1.0281111 1.0113242 0.9863103 1.0043074 0.99747753
0.978188 0.99280685 0.99596554 1.009735 1.0030566 0.97398144 1.0177827 0.98694366
1.0155725 0.9867341 0.9951273 1.0151957 1.013967 1.011993 1.0168817 0.9681341
0.9721905 1.016711 0.99520457 1.0243132 1.013467 1.0234023 0.9869081 1.0125474
1.0330204 1.0089536 1.0089787 0.9844844 0.97239393 0.9782838 0.9984938 1.007995
1.0040576 1.0226336 1.0286561 1.0133172 1.0126967 1.0363865 0.9901327 0.968279
0.98908764 1.0061707 0.97936106 0.99604696 0.9997042 1.0265491 0.99427515 0.9856706
0.9769411 1.021591 1.0049644 1.0118307 1.0005988 0.97677475 0.98676515 1.0223693
1.0007682 0.97568643 0.9923194 0.9884915 1.0251446 1.0028812 0.9966503 0.99539167
0.98073125 1.0302732 0.9789558 1.0290564 0.98925287 0.98156565 1.010684 1.0195148
0.9920766 1.0030982 0.9992549 0.99176157 1.0190353 0.98661184 1.0077934 0.9925688
0.9817541 1.0277884 1.0024426 0.98909193 0.99068445 1.0112864 0.98651475 1.0200126
1.0247079 0.9811151 0.97342396 1.0052521 0.9901926 1.0105114 1.0060647 0.9892118
0.98350745 1.0161812 1.0128498 0.98877686 1.0136304 1.0132598 1.0053213 0.98309815
0.978827 1.0091499 0.9921946 0.9834424 1.0140283 1.0097058 0.98307264 0.9931692
1.0082879 1.0225556 1.031048 1.0113196 1.004205 1.0166409 1.0186198 0.9901916
1.0184956 1.0016285 1.0365272 1.0103663 0.9871694 1.0293872 0.9939244 1.0082389
0.9897516 1.0062555 0.9932322 1.0005385 0.9772655 1.005184 1.0085577 1.0060307
00000000: 9bd4 7e3f fbe1 833f b8d4 7a3f 4ca8 7c3f
00000010: e50d 813f 26e0 813f 59d2 773f a4c8 7b3f
00000020: 7bbc 793f e33a 813f f90d 7d3f fbcb 833f
00000030: 228e 813f ffce 7b3f 4409 7e3f f7a8 833f
00000040: 6349 7c3f 6f42 813f ef53 7b3f 3362 7c3f
00000050: c079 7f3f 7a56 7c3f c80f 7b3f 13fb 7d3f
00000060: 1744 7e3f e3d8 7f3f a5c4 823f d050 7d3f
00000070: 0c84 803f cbde 813f fde9 813f 1c53 7e3f
00000080: d7b7 7b3f 5e5a 7d3f 7246 803f 4991 803f
00000090: 6c0a 833f 7cd0 7b3f 4ced 7a3f 2f1a 7f3f
000000a0: 6178 7d3f 6027 843f 87d4 7b3f 297c 833f
000000b0: 8df9 793f 9951 7d3f de29 833f e9b8 7d3f
000000c0: d913 813f 29db 7f3f 2c4c 813f dd40 7f3f
000000d0: 27fb 7e3f d6a0 7d3f f564 813f 9cc3 803f
000000e0: 243d 7d3f b2b0 803f 6353 803f 2599 833f
000000f0: 1273 813f d57e 7c3f 258d 803f b05a 7f3f
00000100: 876a 7a3f 9728 7e3f 99f7 7e3f ff3e 813f
00000110: 2964 803f d956 793f b446 823f 57a8 7c3f
00000120: 48fe 813f 9b9a 7c3f aac0 7e3f eff1 813f
00000130: acc9 813f fd88 813f 2e29 823f a3d7 773f
00000140: 7ae1 783f 9623 823f bac5 7e3f b21c 833f
00000150: 49b9 813f d9fe 823f 02a6 7c3f 279b 813f
00000160: 033a 843f 6425 813f 3726 813f 2b07 7c3f
00000170: cfee 783f cf70 7a3f 4a9d 7f3f fb05 813f
00000180: f684 803f a8e5 823f 01ab 833f 61b4 813f
00000190: 0ca0 813f 50a8 843f 5679 7d3f 22e1 773f
000001a0: d934 7d3f 34ca 803f 68b7 7a3f effc 7e3f
000001b0: 9dec 7f3f f665 833f d188 7e3f e954 7c3f
000001c0: d018 7a3f 7ec3 823f aca2 803f ab83 813f
000001d0: 9f13 803f e90d 7a3f a49c 7c3f ffdc 823f
000001e0: 2c19 803f 96c6 793f a508 7e3f c70d 7d3f
000001f0: f037 833f 695e 803f 7924 7f3f fdd1 7e3f
00000200: 3411 7b3f fedf 833f d99c 7a3f 1fb8 833f
00000210: ad3f 7d3f e347 7b3f 185e 813f 767f 823f
00000220: bbf8 7d3f 8665 803f 2bcf 7f3f 16e4 7d3f
00000230: c06f 823f 9892 7c3f 60ff 803f fd18 7e3f
00000240: 3d54 7b3f 928e 833f 0a50 803f 2135 7d3f
00000250: 7f9d 7d3f d571 813f 3b8c 7c3f c68f 823f
00000260: a129 833f 5c2a 7b3f 5032 793f 1aac 803f
00000270: 437d 7d3f 7058 813f bac6 803f fc3c 7d3f
00000280: 25c7 7b3f 3a12 823f 10a5 813f 7b20 7d3f
00000290: a4be 813f 7fb2 813f 5eae 803f 52ac 7b3f
000002a0: 6894 7a3f d32b 813f 7700 7e3f e2c2 7b3f
000002b0: aecb 813f 0a3e 813f a6aa 7b3f 5640 7e3f
000002c0: 940f 813f 1ae3 823f 62f9 833f ec72 813f
000002d0: ca89 803f 4a21 823f 2262 823f 327d 7d3f
000002e0: 105e 823f 5d35 803f ecac 843f af53 813f
000002f0: 22b7 7c3f f6c2 833f d471 7e3f f90d 813f
00000300: 5c60 7d3f fbcc 803f 7744 7e3f a511 803f
00000310: 122e 7a3f dfa9 803f 6b18 813f 9dc5 803f

bias f4 [200]
0.0056304517 0.017411323 -0.012130849 0.03096847 0.019240867 -0.0332469 -0.0092992615 0.030640457
-0.013285404 0.02191816 0.0006505533 -0.021926906 0.021037923 -0.021555223 0.0097259665 0.031468824
0.016936293 -0.00935512 -0.026256967 -0.02646949 0.011697957 -0.007381971 -0.007885711 0.016154341
0.0239631 0.00030028936 -0.036538962 -0.013337934 -0.018093389 -0.005357324 -0.034743305 0.020750998
0.010378065 -0.012811861 -0.014940112 -0.025460172 -0.029310199 0.00043231703 0.020348543 -0.018012043
0.011972315 0.028499616 -0.021787958 0.007680163 0.025451466 -0.0134364795 0.031689018 0.022650957
0.0133945 -0.017571526 -0.010730072 2.234301e-05 -0.002086049 -0.012525719 0.02352047 0.02059646
-0.01840637 0.0141651975 -0.021003742 0.005270209 0.008931038 0.041376635 6.207568e-05 -0.0058584623
-0.016911486 -0.012727331 0.022005236 0.026878675 0.022821207 0.024040226 -0.025897844 0.0016503027
0.02678132 0.006754003 -0.023826938 0.0040838686 0.028631248 -0.0029796148 -0.009782585 -0.010319809
0.012099651 -0.0012659729 -0.022263147 0.04081458 0.018505557 0.037635542 0.0046023144 -0.012250302
-0.016983008 0.024263646 -0.010543013 -0.022409597 0.023277663 -0.023157 -0.010263221 0.0058580716
0.01997146 -0.017269177 0.029835012 0.014703261 -0.02552801 0.009512416 -0.02439614 0.010249579
-0.0089622615 -0.015844453 0.018644352 0.008613685 0.02774022 -0.014436487 0.008092332 0.0029943387
0.018839248 -0.017891215 -0.013927055 0.0040639644 0.0010530378 -0.0040625934 0.015754942 0.01312477
-0.006133525 -0.0016389667 -0.012364273 0.003281449 0.0016868967 -0.026278581 -0.026866546 -0.008618218
0.026354497 -0.0038659535 -0.0007533969 -0.02129546 -0.021461478 0.023900667 0.0031015882 0.011385582
0.0043793702 0.021450857 0.011013755 -0.01428088 -0.015050519 -0.012090343 -0.010223107 0.005155403
0.0013302778 -0.029492935 0.00783591 0.0073050726 -0.017910212 -0.0049786326 0.009257097 -0.00023674691
0.017635446 -0.022641 -0.000374683 0.034117922 -0.013455968 0.0076511325 0.01111516 0.0076145465
0.0008089264 0.020023068 0.004209704 0.004647974 0.037848037 -0.01400643 -0.02968684 0.009309815
0.027012149 -0.017242461 -0.00084295333 0.027660538 -0.008935993 -0.021351773 -0.005851496 -0.026010169
-0.008375005 0.029604571 0.010727526 -0.014714145 -0.01767414 0.014676083 -0.0093073975 0.013118386
0.014804002 0.005058823 -0.025202643 0.0015885269 -0.015355483 -0.027292911 -0.0054938127 0.009486118
0.009277114 -0.028374834 -0.01420455 0.013945872 -0.014620411 0.011811846 -0.030942569 0.012964143
00000000: a77f b83b 31a2 8e3c 78c0 46bc 97b1 fd3c
00000010: 069f 9d3c e72d 08bd ee5b 18bc b201 fb3c
00000020: 06ab 59bc b78d b33c e589 2a3a 0ea0 b3bc
00000030: b957 ac3c 9494 b0bc a959 1f3c 74e5 003d
00000040: fbbd 8a3c 3846 19bc da18 d7bc 8bd6 d8bc
00000050: caa8 3f3c 76e4 f1bb 1233 01bc 1c56 843c
00000060: 434e c43c 2870 9d39 e1a9 15bd 5a87 5abc
00000070: 9638 94bc 7e8c afbb ff4e 0ebd fffd a93c
00000080: c208 2a3c d7e8 51bc 5fc7 74bc da91 d0bc
00000090: f11b f0bc 9ca8 e239 fdb1 a63c fe8d 93bc
000000a0: 8727 443c 0778 e93c a97c b2bc e0a9 fb3b
000000b0: 987f d03c ae24 5cbc 58cc 013d 808e b93c
000000c0: 9b74 5b3c 29f2 8fbc 2fcd 2fbc 406d bb37
000000d0: 18b6 08bb ac38 4dbc 00ae c03c e8b9 a83c
000000e0: f5c8 96bc 2515 683c 0a10 acbc b8b1 ac3b
000000f0: 7d53 123c 8c7a 293d a02e 8238 58f8 bfbb
00000100: f589 8abc 4c86 50bc 5344 b43c ab30 dc3c
00000110: 8af3 ba3c 02f0 c43c b727 d4bc f84e d83a
00000120: 8064 db3c af50 dd3b b630 c3bc f9d1 853b
00000130: 148c ea3c a445 43bb 2347 20bc 6b14 29bc
00000140: 9d3d 463c 00ef a5ba 3461 b6bc 302d 273d
00000150: f798 973c ba27 1a3d 03cf 963b 7eb5 48bc
00000160: f31f 8bbc 8ec4 c63c 9abc 2cbc 5594 b7bc
00000170: ccb0 be3c c0b3 bdbc 1227 28bc 11f5 bf3b
00000180: 309b a33c 1778 8dbc 8e68 f43c f2e5 703c
00000190: 1e20 d1bc f7d9 1b3c 6ada c7bc daed 273c
000001a0: 73d6 12bc 3acc 81bc 0abc 983c 6a20 0d3c
000001b0: 753f e33c 0487 6cbc b395 043c ab3c 443b
000001c0: c454 9a3c 9990 92bc 4d2e 64bc 012b 853b
000001d0: 1606 8a3a 811f 85bb 8210 813c 4609 573c
000001e0: bdfb c8bb 99d2 d6ba 8593 4abc 940d 573b
000001f0: dc1a dd3a 2e46 d7bc 3b17 dcbc 6d33 0dbc
00000200: 63e5 d73c f05b 7dbb 9c7f 45ba d173 aebc
00000210: fbcf afbc 55cb c33c 0444 4b3b 988a 3a3c
00000220: d280 8f3b b5b9 af3c 0973 343c 5afa 69bc
00000230: 7496 76bc 9316 46bc d27e 27bc a8ee a83b
00000240: b75c ae3a 2b9b f1bc 3062 003c 645f ef3b
00000250: 70b8 92bc cc23 a3bb 14ab 173c 443f 78b9
00000260: 3678 903c 9e79 b9bc 1a71 c4b9 3cbf 0b3d
00000270: 6c76 5cbc 5ab6 fa3b 5c1c 363c 7283 f93b
00000280: 220e 543a 6b07 a43c 8ff1 893b 084e 983b
00000290: 8b06 1b3d 3a7b 65bc d131 f3bc 3288 183c
000002a0: 9548 dd3c 1040 8dbc a4f9 5cba 5a98 e23c
000002b0: 4568 12bc eae9 aebc e8bd bfbb 4713 d5bc
000002c0: 5137 09bc 4985 f23c 81c2 2f3c 9913 71bc
000002d0: 5cc9 90bc f473 703c 0e7e 18bc 80ee 563c
000002e0: 7c8c 723c 7cc4 a53b c675 cebc 1e36 d03a
000002f0: 9095 7bbc 6295 dfbc 7105 b4bb aa6b 1b3c
00000300: 09ff 173c 5772 e8bc 33ba 68bc 3a7d 643c
00000310: 738a 6fbc 7986 413c 457b fdbc 8f67 543c

running_mean f4 [200]
0.10047563 0.15715796 0.14426783 0.16389902 0.13788106 0.20845097 0.17446063 0.19050828
0.12020723 0.17443927 0.20429458 0.20847076 0.16399333 0.15681407 0.17336491 0.14570981
0.21021295 0.17088993 0.22208692 0.17445995 0.12882015 0.14241253 0.1860598 0.18112192
0.21755059 0.19696827 0.17206444 0.19395992 0.16198196 0.2991502 0.20030645 0.15510249
0.17909227 0.21438463 0.15720528 0.10642008 0.18881938 0.14855415 0.18564552 0.18591177
0.20500055 0.20186144 0.14077781 0.20174775 0.21491772 0.14787503 0.18639734 0.2214934
0.16051313 0.1255844 0.20965385 0.2300979 0.13352382 0.17795804 0.14966537 0.11352775
0.16072212 0.14096087 0.15064785 0.21592101 0.20030119 0.1883853 0.27869073 0.1719641
0.1512234 0.22383209 0.12188849 0.12329684 0.087698445 0.23404303 0.18632638 0.16533111
0.12976466 0.14274262 0.22531071 0.2796312 0.16796198 0.15983042 0.17558622 0.16512965
0.18989146 0.13462043 0.24595632 0.23652469 0.26350993 0.14173365 0.18835805 0.18130513
0.20185693 0.13939346 0.16539386 0.165033 0.16732796 0.15475513 0.1542705 0.28232494
0.14236379 0.17779818 0.23678821 0.1890762 0.16181885 0.1712282 0.13378471 0.14162673
0.16704087 0.2171501 0.18871391 0.08576388 0.23137721 0.1572389 0.21109238 0.1403289
0.1693827 0.28773525 0.17158829 0.15245101 0.0920969 0.1736943 0.20355922 0.14825068
0.15784372 0.19498159 0.22440304 0.17073381 0.13844611 0.1602843 0.16772023 0.20184256
0.118631646 0.16964294 0.25078708 0.15213802 0.22349867 0.16200268 0.14543708 0.16555195
0.10667247 0.1657828 0.19977896 0.2993655 0.14748351 0.24353316 0.20183197 0.14363304
0.19266532 0.14870624 0.23591948 0.17133419 0.23112974 0.18372087 0.14233261 0.14304562
0.07720402 0.18130495 0.2350908 0.08488202 0.21621752 0.15205261 0.22164221 0.22588287
0.1631878 0.19665436 0.115701176 0.1679511 0.27107447 0.12283322 0.16966406 0.18592983
0.18893975 0.1431829 0.21616846 0.17196172 0.07967578 0.1839124 0.25197935 0.22076893
0.16561835 0.15203425 0.16845934 0.16009077 0.12912549 0.18954322 0.22396652 0.19052689
0.18032958 0.1968913 0.19960041 0.13941503 0.07823437 0.1842954 0.12107733 0.21360438
0.16945557 0.1440365 0.20356825 0.19918178 0.16198966 0.14204566 0.18306464 0.1572554
00000000: 2bc6 cd3d 04ee 203e f2ba 133e 25d5 273e
00000010: b130 0d3e 2c74 553e cfa5 323e 9a14 433e
00000020: 352f f63d 35a0 323e 9932 513e 5c79 553e
00000030: deed 273e de93 203e 9286 313e f434 153e
00000040: 1042 573e c5fd 2e3e c16a 633e a1a5 323e
00000050: 6ee9 033e 97d4 113e 7686 3e3e 0678 393e
00000060: 95c5 5e3e 0db2 493e a931 303e 6e9d 463e
00000070: 99de 253e 372a 993e 221d 4d3e 30d3 1e3e
00000080: f763 373e a587 5b3e 6cfa 203e c5f2 d93d
00000090: de59 413e 941e 183e dc19 3e3e a85f 3e3e
000000a0: aaeb 513e c4b4 4e3e 0f28 103e f696 4e3e
000000b0: 6413 5c3e 8d6c 173e f2de 3e3e 2acf 623e
000000c0: 8e5d 243e 3299 003e 80af 563e c99e 6b3e
000000d0: 78ba 083e a23a 363e e141 193e 3d81 e83d
000000e0: 5794 243e 0c58 103e 6e43 1a3e 661a 5d3e
000000f0: c11b 4d3e 13e8 403e 8db0 8e3e 5b17 303e
00000100: 4fda 1a3e 3d34 653e aca0 f93d 0e83 fc3d
00000110: 3e9b b33d faa8 6f3e 58cc 3e3e 8f4c 293e
00000120: 07e1 043e 1f2b 123e dab7 663e d22b 8f3e
00000130: 3afe 2b3e 96aa 233e e0cc 333e bf17 293e
00000140: e872 423e f0d9 093e f9db 7b3e 8733 723e
00000150: c6ea 863e a022 113e efe0 403e 0da8 393e
00000160: 95b3 4e3e 29bd 0e3e 025d 293e 69fe 283e
00000170: 0558 2b3e 2178 1e3e 16f9 1d3e e58c 903e
00000180: d0c7 113e ba10 363e 9c78 723e 319d 413e
00000190: d7b3 253e 7256 2f3e dcfe 083e 9906 113e
000001a0: c30c 2b3e 995c 5e3e 383e 413e f9a4 af3d
000001b0: 26ee 6c3e 3c03 213e 9a28 583e 61b2 0f3e
000001c0: a972 2d3e 0952 933e d7b4 2f3e 1e1c 1c3e
000001d0: 4d9d bc3d ebdc 313e d471 503e 07cf 173e
000001e0: c9a1 213e 41a9 473e e9c9 653e d8d4 2e3e
000001f0: d1c4 0d3e 9121 243e dabe 2b3e d1af 4e3e
00000200: 26f5 f23d e1b6 2d3e 2a67 803e 12ca 1b3e
00000210: d6dc 643e 08e4 253e 75ed 143e 7386 293e
00000220: 1977 da3d f7c2 293e db92 4c3e 6f46 993e
00000230: eb05 173e c260 793e 0aad 4e3e 8a14 133e
00000240: 0f4a 453e 7346 183e e094 713e 3b72 2f3e
00000250: 46ad 6c3e 5321 3c3e a4bf 113e 8d7a 123e
00000260: 241d 9e3d 01a8 393e a5bb 703e a0d6 ad3d
00000270: 2068 5d3e aeb3 1b3e 2df6 623e d74d 673e
00000280: b41a 273e c35f 493e bdf4 ec3d 60fb 2b3e
00000290: 46ca 8a3e fc8f fb3d 6abc 2d3e 6464 3e3e
000002a0: 6c79 413e 8a9e 123e 445b 5d3e bc16 303e
000002b0: 0e2d a33d 8853 3c3e 7003 813e 4011 623e
000002c0: db97 293e deae 1b3e 9b80 2c3e d6ee 233e
000002d0: 7939 043e 9e17 423e 7b57 653e 7b19 433e
000002e0: 51a8 383e df9d 493e 0d64 4c3e d0c2 0e3e
000002f0: 5739 a03d efb7 3c3e 64f7 f73d 1bbb 5a3e
00000300: c385 2d3e 4e7e 133e 3274 503e 4ff6 4b3e
00000310: 9ee0 253e 6b74 113e 4c75 3b3e 8f07 213e

running_var f4 [200]
0.25698367 0.2790337 0.29913533 0.28697747 0.2730905 0.33841002 0.31121233 0.30312577
0.27147236 0.30152965 0.3309747 0.33083108 0.27914292 0.30423358 0.3237017 0.27670342
0.35483962 0.29688492 0.34162694 0.28306407 0.27962035 0.270157 0.31469953 0.30988097
0.34452754 0.33134532 0.29846904 0.3474812 0.28944057 0.4701707 0.33221397 0.2960604
0.31072265 0.33941552 0.3199632 0.26371348 0.32797405 0.30413395 0.32252184 0.3558896
0.3677357 0.3230036 0.2736189 0.36065924 0.32469136 0.3072895 0.28873584 0.35651973
0.29480582 0.2698196 0.32472453 0.3478633 0.27123162 0.31364414 0.30040005 0.27058166
0.28838095 0.2819091 0.29126307 0.34819335 0.34093243 0.32834423 0.42814198 0.30290347
0.28275177 0.33309448 0.2669339 0.26007733 0.24902585 0.34717724 0.32741657 0.29529685
0.27860758 0.2739426 0.3680075 0.42264387 0.31646946 0.29897314 0.3725438 0.3015554
0.3407438 0.2803458 0.38200685 0.34254566 0.3682206 0.29251453 0.3315968 0.32746825
0.33249834 0.27367246 0.31060284 0.2920344 0.29956746 0.29951367 0.28255546 0.40473074
0.2833025 0.3173029 0.34009135 0.3285083 0.27343863 0.3281048 0.29587156 0.2836463
0.31807828 0.33329222 0.3280845 0.24611533 0.42528638 0.30500993 0.33905149 0.2811411
0.28232765 0.42753518 0.3074171 0.2941889 0.25007963 0.29570952 0.3490445 0.2814257
0.30215126 0.31995493 0.34833515 0.290267 0.291192 0.3261936 0.2967627 0.3272539
0.27914113 0.31019634 0.3386256 0.28463617 0.3400226 0.27936038 0.28664893 0.30201367
0.25918055 0.33117312 0.33985376 0.41305953 0.28359783 0.3709443 0.31796512 0.26123258
0.33899266 0.28854188 0.34070987 0.2883178 0.38247052 0.33810732 0.2897486 0.2798705
0.2549154 0.31623033 0.40325335 0.25820556 0.45047042 0.28326428 0.36497152 0.41129005
0.29485023 0.32600784 0.2602312 0.3065619 0.36668128 0.2594093 0.29372844 0.30890366
0.2867988 0.2850576 0.41097948 0.33121023 0.24429844 0.3276848 0.40316316 0.3395093
0.29296505 0.27534342 0.3226802 0.29544184 0.27985483 0.3222492 0.35595083 0.3388357
0.29325867 0.31677696 0.37125808 0.28115273 0.24780597 0.34024045 0.25484878 0.32663253
0.315434 0.31500575 0.364736 0.33679366 0.26701173 0.2900401 0.3249256 0.27880895
00000000: 5d93 833e 81dd 8e3e 4428 993e b6ee 923e
00000010: 85d2 8b3e 1444 ad3e 3957 9f3e 4d33 9b3e
00000020: 6dfe 8a3e 1862 9a3e 8475 a93e b162 a93e
00000030: d2eb 8e3e 81c4 9b3e 3bbc a53e 12ac 8d3e
00000040: 8aad b53e 4d01 983e bae9 ae3e c6ed 903e
00000050: 662a 8f3e 0552 8a3e 4c20 a13e b8a8 9e3e
00000060: ea65 b03e 18a6 a93e efd0 983e 0ee9 b13e
00000070: 8e31 943e 37ba f03e f317 aa3e 3b95 973e
00000080: 0a17 9f3e dfc7 ad3e 37d2 a33e 7405 873e
00000090: 37ec a73e 72b7 9b3e 9521 a53e 2937 b63e
000000a0: db47 bc3e ba60 a53e c717 8c3e 54a8 b83e
000000b0: f23d a63e 0d55 9d3e 2fd5 933e c189 b63e
000000c0: caf0 963e cb25 8a3e 4b42 a63e 231b b23e
000000d0: dfde 8a3e f795 a03e 09ce 993e ae89 8a3e
000000e0: aba6 933e 6456 903e 6f20 953e 6646 b23e
000000f0: b28e ae3e bc1c a83e 6d35 db3e 2a16 9b3e
00000100: d7c4 903e 5c8b aa3e 8fab 883e db28 853e
00000110: a200 7f3e 37c1 b13e 25a3 a73e 2631 973e
00000120: a7a5 8e3e 3442 8c3e 7b6b bc3e c764 d83e
00000130: 4908 a23e 0213 993e 10be be3e 7865 9a3e
00000140: f975 ae3e 7c89 8f3e 6796 c33e 2562 af3e
00000150: 6987 bc3e 77c4 953e 0ec7 a93e eba9 a73e
00000160: 393d aa3e cc1e 8c3e 5607 9f3e 8885 953e
00000170: e860 993e db59 993e 1cab 903e de38 cf3e
00000180: 060d 913e 8775 a23e 7420 ae3e 3d32 a83e
00000190: 2600 8c3e 5afd a73e 7a7c 973e 163a 913e
000001a0: 28db a23e 47a5 aa3e b1fa a73e a805 7c3e
000001b0: 23bf d93e 432a 9c3e 2898 ad3e baf1 8f3e
000001c0: 408d 903e e4e5 da3e c665 9d3e ed9f 963e
000001d0: 700a 803e 3d67 973e f6b5 b23e 0817 903e
000001e0: 92b3 9a3e 22d1 a33e fc58 b23e e09d 943e
000001f0: 1e17 953e d902 a73e 48f1 973e d38d a73e
00000200: 96eb 8e3e 0ed2 9e3e 5660 ad3e d5bb 913e
00000210: 7117 ae3e 5308 8f3e a6c3 923e 89a1 9a3e
00000220: 50b3 843e 868f a93e 5001 ae3e 8a7c d33e
00000230: bc33 913e 69ec bd3e 53cc a23e 47c0 853e
00000240: 7290 ad3e c3bb 933e 8671 ae3e 649e 933e
00000250: 2dd3 c33e 671c ad3e ee59 943e 304b 8f3e
00000260: 4584 823e f1e8 a13e 3977 ce3e 8533 843e
00000270: 0fa4 e63e 0408 913e 8cdd ba3e 9c94 d23e
00000280: 9cf6 963e 80ea a63e 063d 853e aef5 9c3e
00000290: a6bd bb3e 4cd1 843e 9363 963e 9f28 9e3e
000002a0: 4bd7 923e 12f3 913e e76b d23e 6394 a93e
000002b0: 5f29 7a3e 4dc6 a73e 676b ce3e 2ad4 ad3e
000002c0: 84ff 953e d0f9 8c3e 5736 a53e 2744 973e
000002d0: 2249 8f3e d9fd a43e 303f b63e df7b ad3e
000002e0: 0026 963e 9730 a23e 8a15 be3e 40f3 8f3e
000002f0: d9c0 7d3e ff33 ae3e 8a7b 823e 613c a73e
00000300: 9180 a13e 6f48 a13e adbe ba3e 3870 ac3e
00000310: c3b5 883e 2380 943e a65c a63e 0cc0 8e3e

weight f4 [100, 200]
-0.03533308 -0.010336901 -0.045269094 0.05367695 0.04082826 -0.05980494 -0.022663979 0.021202613
0.061629992 -0.035135884 0.043892343 -0.0037846067 -0.02065046 0.02966145 -0.06879048 0.056335583
0.07685378 -0.03519523 0.028781017 0.08530377 0.000523302 0.010029448 0.011905505 -0.024476023
0.025396654 -0.07491811 0.04486212 -0.04957216 0.024567848 -0.036019016 0.035031013 0.010790807
0.022421451 -0.042777535 -0.060912903 0.028428068 -0.02754503 -0.069171906 0.046340436 -0.061602954
-0.043002073 -0.018458776 0.02322331 -0.047372006 -0.021247815 -0.034943316 0.06204089 0.034044627
-0.03408094 -0.066482715 -0.012227095 0.016768385 -0.01506796 0.022683926 0.023592781 0.0010973774
0.013192931 0.026898704 0.0006126282 0.023079654 0.04622974 -0.031600278 -0.0025508169 -0.039882496
-0.065180674 0.04190482 0.059074443 -0.06452308 -0.0024084053 0.021998478 0.015642079 0.06361705
0.09312247 0.04733469 -0.07184264 -0.036340695 0.041852638 -0.03090709 0.000107429805 -0.043702524
-0.0045716036 0.041952558 0.015694832 0.04386014 -0.02090292 0.020858176 0.021344185 -0.018154338
-0.06789218 0.055306114 -0.026878722 0.062905885 0.059934694 -0.010523768 -0.049046416 -0.0064329845
-0.049776696 0.041417163 -0.04062412 0.055300195 -0.06915898 -0.047096357 0.013089141 0.013729673
0.07157083 -0.019597834 -0.060862552 0.033285294 0.0061642635 0.041238118 -0.014342779 -0.035768252
-0.049830668 0.006729652 0.027610814 -0.043937054 -0.006822011 0.0030458143 0.050415143 -0.023357721
0.051182713 -0.055081356 -0.033854906 -0.07559133 0.03737277 -0.04130013 0.040511627 -0.05047568
0.06142726 0.003979889 -0.053207643 -0.004000324 0.016705545 -0.0681535 -0.0043271095 0.09138332
0.015872607 -0.004313426 0.0077650845 -0.0065367757 -0.010364116 0.059065036 0.04947337 0.027743882
-0.03816519 -0.089348294 -0.049045533 0.051258434 -0.06956164 -0.08018275 0.0073462287 0.010134294
-0.103042535 -0.07572456 -0.010243109 -0.048582617 0.032979015 0.044197492 -0.05310412 -0.0745791
0.043667052 -0.00036827096 -0.047985956 0.04029282 -0.009935374 0.042963076 0.0011136923 -0.04658288
-0.046216626 0.034721766 -0.06226256 -0.02161474 -0.012287096 -0.025590383 0.028557332 -0.068987906
-0.006630312 -0.022295054 0.027677756 -0.06125322 0.0063416404 0.026759667 -0.032012273 -0.009489221
-0.029395772 0.0675927 -0.024809822 0.017367218 0.0023724372 -0.027272506 0.032863 -0.071846515
0.041235197 0.03878108 0.008398395 0.03682807 -0.026292067 0.00419875 -0.006622196 -0.038989987
-0.0047289664 -0.044225246 0.0021534972 -0.07779246 -0.07088337 -0.021066355 -0.00795664 -0.08190176
0.027391555 0.04685981 0.036810063 0.08794119 -0.05393486 -0.04158412 -0.019335175 -0.0023302725
-0.0009985069 0.025777927 0.022347054 0.01870482 -0.029391672 0.06511881 0.06633279 -0.00715805
-0.08238016 -0.022057336 0.02299536 0.03474911 0.041600287 0.055943046 0.047436696 0.0033625332
0.061966643 -0.03639125 0.045532737 -0.038642097 0.011272444 0.045255158 0.056809574 -0.0032485516
0.007108862 -0.05310522 0.010667225 0.06607139 0.019442659 -0.042930532 -0.069940634 0.032918368
0.0009826698 0.051888727 0.07475712 -0.0039435783 -0.023994297 -0.033820387 0.041985907 0.057079464
00000000: 6bb9 10bd 1b5c 29bc 166c 39bd 5ddc 5b3d
00000010: 893b 273d 06f6 74bd cfa9 b9bc 1ab1 ad3c
00000020: bb6f 7c3d a5ea 0fbd 75c8 333d 2a07 78bb
00000030: 272b a9bc 92fc f23c 06e2 8cbd 24c0 663d
00000040: 8465 9d3d e028 10bd 2bc6 eb3c beb3 ae3d
00000050: 342e 093a 8e52 243c 4f0f 433c f181 c8bc
00000060: a50c d03c ab6e 99bd 58c1 373d 2d0c 4bbd
00000070: 8342 c93c ad88 13bd ae7c 0f3d edcb 303c
00000080: 31ad b73c 7f37 2fbd cf7f 79bd fbe1 e83c
00000090: 1da6 e1bc 00aa 8dbd 78cf 3d3d 6153 7cbd
000000a0: f122 30bd dc36 97bc d03e be3c 2609 42bd
000000b0: e60f aebc b920 0fbd 971e 7e3d 6172 0b3d
000000c0: 7598 0bbd 1728 88bd 2754 48bc da5d 893c
000000d0: 9bdf 76bc a4d3 b93c a645 c13c e0d5 8f3a
000000e0: 2a27 583c ac5a dc3c c898 203a 8b11 bd3c
000000f0: 655b 3d3d 4b6f 01bd 9b2b 27bb d45b 23bd
00000100: 727d 85bd 63a4 2b3d 0bf8 713d ad24 84bd
00000110: 56d6 1dbb 2736 b43c d123 803c a849 823d
00000120: feb6 be3d 05e2 413d 3c22 93bd fbd9 14bd
00000130: ac6d 2b3d de30 fdbc f04b e138 6b01 33bd
00000140: 64cd 95bb 72d6 2b3d 7392 803c b1a6 333d
00000150: 9a3c abbc c4de aa3c 00da ae3c 68b8 94bc
00000160: 0e0b 8bbd aa88 623d c430 dcbc cdd4 803d
00000170: 157e 753d e26b 2cbc e5e4 48bd c9cb d2bb
00000180: a6e2 4bbd 0ba5 293d 7a65 26bd 7582 623d
00000190: 39a3 8dbd 1ce8 40bd d673 563c 6cf2 603c
000001a0: ba93 923d a38b a0bc 034b 79bd 2956 083d
000001b0: 97fd c93b 4de9 283d fafd 6abc bb81 12bd
000001c0: 3e1b 4cbd 6a84 dc3b 1330 e23c 57f7 33bd
000001d0: 2d8b dfbb 499c 473b 1c80 4e3d b158 bfbc
000001e0: f7a4 513d fd9c 61bd 71ab 0abd a1cf 9abd
000001f0: 3114 193d 532a 29bd 85ef 253d 96bf 4ebd
00000200: 279b 7b3d bb69 823b 42f0 59bd 2615 83bb
00000210: 11da 883c 1094 8bbd 6dca 8dbb 2e27 bb3d
00000220: 4507 823c a457 8dbb 4072 fe3b 7332 d6bb
00000230: 41ce 29bc 2eee 713d 97a4 4a3d 2347 e33c
00000240: 1a53 1cbd 3dfc b6bd f8e3 48bd 5df4 513d
00000250: 5576 8ebd db36 a4bd a2b8 f03b 4f0a 263c
00000260: f707 d3bd 7a15 9bbd b7d2 27bc 91fe 46bd
00000270: 0115 073d 6e08 353d b583 59bd edbc 98bd
00000280: 39dc 323d 7e14 c1b9 ec8c 44bd 160a 253d
00000290: fbc7 22bc 0dfa 2f3d 50f9 913a b1cd 3ebd
000002a0: a54d 3dbd 6938 0e3d 0707 7fbd 6511 b1bc
000002b0: d14f 49bc eca2 d1bc 11f1 e93c 8849 8dbd
000002c0: 1743 d9bb 1ea4 b6bc 76bc e23c a8e4 7abd
000002d0: 89cd cf3b 1737 db3c 4d1f 03bd ad78 1bbc
000002e0: 67cf f0bc 0b6e 8a3d f83d cbbc b245 8e3c
000002f0: e47a 1b3b 976a dfbc 5a9b 063d 4424 93bd
00000300: 3de6 283d e9d8 1e3d 6c99 093c 08d9 163d
00000310: 7662 d7bc ab95 893b 02ff d8bb f7b3 1fbd
00000320: 72f5 9abb 8825 35bd b021 0d3b a751 9fbd
00000330: 4d2b 91bd 5993 acbc 915c 02bc 1cbc a7bd
00000340: 4164 e03c 12f0 3f3d 26c6 163d 831a b43d
00000350: cdea 5cbd 1c54 2abd cd64 9ebc 7cb7 18bb
00000360: 55e0 82ba 3b2c d33c 2b11 b73c da3a 993c
00000370: cec6 f0bc 035d 853d 7cd9 873d 138e eabb
00000380: eeb6 a8bd 96b1 b4bc c460 bc3c 1555 0e3d
00000390: 1065 2a3d 8924 653d fb4c 423d f25d 5c3b
000003a0: bcd0 7d3d fe0e 15bd 8980 3a3d 2d47 1ebd
000003b0: 0fb0 383c 795d 393d 28b1 683d a7e5 54bb
000003c0: 75f1 e83b dc84 59bd 96c5 2e3c 7050 873d
000003d0: 3646 9f3c edd7 2fbd 093d 8fbd 69d5 063d
000003e0: edcc 803a 4689 543d 431a 993d 2239 81bb
000003f0: b08f c4bc 3f87 0abd 6af9 2b3d 28cc 693d

weight f4 [100]
0.9872355 0.97966397 0.97384304 0.990291 1.0178579 0.98067373 0.97240216 0.9856538
0.97689605 0.978037 1.0223584 0.98231196 0.9888286 1.0093849 0.9837978 1.0036975
0.9884545 0.98111826 0.9765163 0.9898287 0.97614723 1.0064627 0.9799723 1.0103589
0.988324 0.98414236 0.97700465 0.9844679 1.0099051 0.98739535 0.99561083 0.9842376
0.9684254 1.011514 0.9811967 1.0097097 0.99161595 1.0105985 0.9796505 0.99358976
0.9850553 1.0185796 1.0074165 0.97547483 1.0126938 0.989727 0.9875686 0.97258866
0.9851879 0.9757264 0.98059773 0.9753642 0.9797731 1.0118413 1.0068127 1.0017327
1.0125774 0.9966431 0.9838066 0.97956973 0.9807964 1.0180539 0.9918216 0.97486484
0.9803409 0.9876255 0.991375 0.9866138 0.99524575 1.0018768 0.9847575 1.0208751
0.9872243 1.0074074 1.0063082 0.97842073 0.97369254 0.9892295 0.98121965 0.9771361
0.98484737 1.0283991 0.9905145 1.0003651 0.9871119 0.9963518 0.98282355 1.0061493
1.0078887 0.98997724 0.9835896 0.96512365 0.9826373 0.9788976 0.9908435 1.0227565
0.9684102 0.97915834 1.0044754 0.97424316
00000000: 77bb 7c3f 42cb 7a3f c74d 793f b683 7d3f
00000010: 2b49 823f 6f0d 7b3f 59ef 783f cf53 7c3f
00000020: dc15 7a3f a260 7a3f a4dc 823f cc78 7b3f
00000030: df23 7d3f 8633 813f 2cda 7b3f 2979 803f
00000040: 5b0b 7d3f 912a 7b3f f9fc 793f 6a65 7d3f
00000050: c9e4 793f c5d3 803f 77df 7a3f 7153 813f
00000060: cd02 7d3f c1f0 7b3f fa1c 7a3f 1706 7c3f
00000070: 9244 813f f1c5 7c3f 5ae0 7e3f fff6 7b3f
00000080: baea 773f 4a79 813f b52f 7b3f 2b3e 813f
00000090: 8bda 7d3f 4b5b 813f 60ca 7a3f e65b 7e3f
000000a0: 962c 7c3f d160 823f 06f3 803f b8b8 793f
000000b0: f39f 813f c05e 7d3f 4cd1 7c3f 92fb 783f
000000c0: 4635 7c3f 35c9 793f 7408 7b3f 78b1 793f
000000d0: 69d2 7a3f 0484 813f 3ddf 803f c738 803f
000000e0: 239c 813f 0124 7f3f c0da 7b3f 15c5 7a3f
000000f0: 7915 7b3f 974f 823f 05e8 7d3f be90 793f
00000100: 9ff7 7a3f 06d5 7c3f c1ca 7d3f b992 7c3f
00000110: 6dc8 7e3f 803d 803f 1119 7c3f 09ac 823f
00000120: bbba 7c3f baf2 803f b5ce 803f c879 7a3f
00000130: ea43 793f 253e 7d3f 3631 7b3f 9725 7a3f
00000140: f51e 7c3f 95a2 833f 5c92 7d3f f70b 803f
00000150: 5eb3 7c3f e910 7f3f 539a 7b3f 80c9 803f
00000160: 7f02 813f 266f 7d3f 87cc 7b3f 5812 773f
00000170: 1e8e 7b3f 0899 7a3f eba7 7d3f afe9 823f
00000180: bbe9 773f 1faa 7a3f a692 803f 0068 793f

bias f4 [100]
0.036569294 -0.032561623 -0.03182865 0.039395638 0.023333194 -0.028614903 0.031543642 -0.03233535
-0.033744514 0.03582955 0.040262155 0.035695698 -0.034800828 -0.03438726 0.032128073 -0.03493747
-0.040333293 -0.033912655 0.035310145 0.038220763 0.035739638 -0.034620646 0.031063702 -0.0372957
-0.03887165 0.036633886 -0.03256303 0.021134764 -0.038143914 -0.033016194 0.03729912 0.034622356
0.033937663 0.037034165 0.035301063 -0.036765907 0.039737903 -0.037772086 0.034596555 0.0058768806
-0.030715754 -0.038106106 0.042657323 -0.031720277 -0.034274828 0.036087617 -0.023194643 0.03392244
0.038258146 -0.022274617 0.034952674 -0.03377777 -0.033613525 -0.0367149 -0.037335932 -0.038106594
0.037014358 -0.019464638 -0.03335321 -0.03366264 0.03422594 -0.035871312 0.033749625 0.0338688
0.03665867 0.035586312 0.03474575 -0.035039257 -0.034620266 -0.035676334 0.03503194 -0.035784256
0.03197699 -0.036148112 -0.036128037 0.034789015 0.036828402 -0.03264873 -0.03172196 -0.03250564
-0.0146149155 0.04181207 0.03372713 -0.037051894 0.035430137 0.03723955 -0.03237558 -0.037641075
0.037432093 0.035225496 0.033149473 0.033659868 0.037046205 -0.03266672 0.037662912 -0.036963496
-0.026123472 -0.03190815 -0.034779627 0.03607247
00000000: afc9 153d 565f 05bd c25e 02bd 525d 213d
00000010: 4125 bf3c cd69 eabc e833 013d 1272 04bd
00000020: b037 0abd 02c2 123d eee9 243d a735 123d
00000030: 508b 0ebd a8d9 0cbd ba98 033d 981a 0fbd
00000040: 8634 25bd ffe7 0abd 5fa1 103d 608d 1c3d
00000050: ba63 123d 61ce 0dbd 4e79 fe3c 60c3 18bd
00000060: e137 1fbd 6a0d 163d d060 05bd d022 ad3c
00000070: cb3c 1cbd fd3b 07bd f6c6 183d 2cd0 0d3d
00000080: 3802 0b3d 23b1 173d d997 103d d997 16bd
00000090: 36c4 223d e7b6 1abd 1eb5 0d3d d992 c03b
000000a0: 9b9f fbbc 2615 1cbd 72b9 2e3d 1fed 01bd
000000b0: c363 0cbd 9cd0 133d b102 bebc 42f2 0a3d
000000c0: 93b4 1c3d 4279 b6bc 892a 0f3d 8f5a 0abd
000000d0: 56ae 09bd 5d62 16bd 90ed 18bd a915 1cbd
000000e0: 5e9c 173d 4e74 9fbc 609d 08bd d6e1 09bd
000000f0: 8030 0c3d cced 12bd 0c3d 0a3d 03ba 0a3d
00000100: 6727 163d f4c2 113d 8f51 0e3d 5385 0fbd
00000110: fbcd 0dbd 5921 12bd a77d 0f3d 8392 12bd
00000120: 4efa 023d 0b10 14bd fefa 13bd ed7e 0e3d
00000130: 61d9 163d adba 05bd e3ee 01bd a224 05bd
00000140: 6673 6fbc 2243 2b3d 7625 0a3d bac3 17bd
00000150: 311f 113d 8088 183d 429c 04bd 872d 1abd
00000160: 6552 193d 9c48 103d bec7 073d eede 093d
00000170: c3bd 173d 8acd 05bd 6d44 1a3d 0967 17bd
00000180: e400 d6bc 1fb2 02bd 1575 0ebd bac0 133d

running_mean f4 [100]
0.24114025 0.21260957 0.20359588 0.22103852 0.18370418 0.20409587 0.26732096 0.20828268
0.25746506 0.40407333 0.23746611 0.24562968 0.2623207 0.24213298 0.22145137 0.27878037
0.21376604 0.21666487 0.25351748 0.241132 0.25240597 0.22061515 0.20055442 0.2640176
0.27401412 0.24337396 0.2356065 0.2736076 0.26691794 0.19079526 0.2415514 0.25341323
0.22310427 0.29747975 0.2738623 0.24347095 0.27213264 0.25305492 0.21438912 0.3142312
0.22094359 0.2796116 0.20699887 0.26367903 0.22405733 0.21182479 0.18233857 0.2544844
0.21885647 0.23636174 0.26945204 0.3178144 0.24404934 0.2628286 0.23276907 0.2648777
0.21518424 0.25817278 0.20815107 0.2537292 0.24522094 0.2901272 0.18018171 0.24474472
0.26835114 0.29733106 0.2297843 0.18400274 0.270926 0.20175253 0.18901332 0.25016043
0.20877095 0.27848917 0.1984811 0.23092622 0.22753786 0.23258215 0.25140214 0.24276453
0.18075287 0.18481039 0.24773777 0.22192928 0.20764567 0.36040843 0.20188849 0.2834615
0.24341494 0.24948053 0.22292335 0.23763667 0.24058306 0.2241506 0.2908566 0.23759426
0.19251531 0.20000973 0.19594201 0.2850948
00000000: 78ed 763e 53b6 593e 707b 503e ec57 623e
00000010: f31c 3c3e 82fe 503e 4bde 883e 0e48 553e
00000020: 76d2 833e b3e2 ce3e 512a 733e 5986 7b3e
00000030: e64e 863e b5f1 773e 26c4 623e 4dbc 8e3e
00000040: 7ce5 5a3e 65dd 5d3e 0bcd 813e 4feb 763e
00000050: 5b3b 813e f0e8 613e 235e 4d3e 512d 873e
00000060: 944b 8c3e 0637 793e d542 713e 4c16 8c3e
00000070: 78a9 883e d55f 433e 4059 773e 61bf 813e
00000080: 7275 643e 444f 983e ae37 8c3e 7350 793e
00000090: f854 8b3e 6a90 813e d288 5b3e e9e2 a03e
000000a0: 093f 623e 4029 8f3e 83f7 533e f000 873e
000000b0: 496f 653e 99e8 583e f6b6 3a3e c74b 823e
000000c0: e91b 603e d008 723e 9ef5 893e 92b8 a23e
000000d0: 12e8 793e 7891 863e 045b 6e3e 0d9e 873e
000000e0: 4259 5c3e 392f 843e 8e25 553e cbe8 813e
000000f0: 331b 7b3e 8d8b 943e 8e81 383e 5c9e 7a3e
00000100: 5265 893e c73b 983e 934c 6b3e 376b 3c3e
00000110: d0b6 8a3e 3798 4e3e b58c 413e 0715 803e
00000120: 0dc8 553e 2296 8e3e a13e 4b3e ec77 6c3e
00000130: afff 683e 042a 6e3e c8b7 803e 4497 783e
00000140: 4817 393e ef3e 3d3e f8ae 7d3e 6e41 633e
00000150: 11a1 543e 7487 b83e dbbb 4e3e de21 913e
00000160: c441 793e d377 7f3e 0546 643e 0757 733e
00000170: 685b 763e bc87 653e 28eb 943e e94b 733e
00000180: bc22 453e 5acf 4c3e 06a5 483e f2f7 913e

running_var f4 [100]
0.36532465 0.41425407 0.3933274 0.37104982 0.359428 0.35702458 0.39857772 0.4197124
0.48088938 0.5252813 0.4006687 0.41813028 0.47325405 0.43339524 0.36717796 0.49324968
0.40710977 0.44287997 0.42380577 0.4283663 0.42434207 0.41809392 0.36251745 0.48358122
0.47483838 0.36781636 0.39655936 0.4405985 0.47329083 0.37195843 0.37751427 0.39324552
0.3836079 0.42921308 0.3931835 0.42877105 0.42395687 0.44080898 0.3631265 0.4020011
0.39854178 0.5088569 0.33012235 0.41909567 0.4183242 0.36322594 0.34302583 0.37385893
0.34314662 0.41319647 0.37487593 0.50185585 0.39203164 0.46172932 0.40868053 0.4564198
0.3693716 0.44363087 0.36261705 0.4960143 0.37591767 0.49446657 0.3520875 0.3513773
0.37063962 0.4838084 0.42271867 0.35920042 0.5876061 0.38702428 0.37946364 0.4340007
0.3587219 0.46855503 0.35569683 0.37112308 0.36707988 0.39971408 0.41948602 0.44912028
0.33655307 0.34475905 0.4460955 0.4236121 0.33595702 0.4874334 0.37377357 0.48773026
0.37737423 0.40465978 0.33419955 0.38133684 0.34479374 0.40573955 0.41581795 0.41120785
0.3748694 0.37341976 0.34769303 0.41906476
00000000: d50b bb3e 1c19 d43e 3562 c93e 3efa bd3e
00000010: f206 b83e edcb b63e 6112 cc3e 8be4 d63e
00000020: 2237 f63e d678 063f 7324 cd3e 2c15 d63e
00000030: 5b4e f23e fbe5 dd3e c0fe bb3e 398b fc3e
00000040: b170 d03e 2ac1 e23e 12fd d83e d452 db3e
00000050: 5d43 d93e 6810 d63e e39b b93e f597 f73e
00000060: 041e f33e 6d52 bc3e d409 cb3e 2096 e13e
00000070: 2d53 f23e 5671 be3e 8d49 c13e 7a57 c93e
00000080: 4168 c43e d1c1 db3e 594f c93e e187 db3e
00000090: e010 d93e b7b1 e13e b7eb b93e 17d3 cd3e
000000a0: ab0d cc3e 7244 023f cc05 a93e b593 d63e
000000b0: 972e d63e c0f8 b93e 15a1 af3e 706a bf3e
000000c0: eab0 af3e 7d8e d33e bdef bf3e a079 003f
000000d0: 5fb8 c83e c967 ec3e 933e d13e dbaf e93e
000000e0: 461e bd3e 9623 e33e f1a8 b93e 96f5 fd3e
000000f0: 4878 c03e b92a fd3e d044 b43e bae7 b33e
00000100: 7ac4 bd3e bcb5 f73e 956e d83e 1ee9 b73e
00000110: 5a6d 163f 0c28 c63e 0f49 c23e 5735 de3e
00000120: 66aa b73e 72e6 ef3e e51d b63e d803 be3e
00000130: e5f1 bb3e 53a7 cc3e dfc6 d63e 18f3 e53e
00000140: af50 ac3e 4284 b03e a166 e43e afe3 d83e
00000150: 8f02 ac3e df90 f93e 405f bf3e c8b7 f93e
00000160: 3237 c13e 912f cf3e 341c ab3e 953e c33e
00000170: ce88 b03e 18bd cf3e 17e6 d43e d689 d23e
00000180: e2ee bf3e e030 bf3e d204 b23e a88f d63e

weight f4 [2, 100]
0.07282044 -0.054515935 0.014486676 0.04997979 0.10507605 0.0947185 0.0932962 -0.08398993
-0.0123060495 -0.03390398 0.09963792 0.06828822 -0.0872819 -0.033442263 -0.07026945 -0.072754174
-0.06830849 -0.06626616 0.050555665 -0.012011786 0.044355202 -0.08094466 0.044525176 -0.0188441
0.070566796 0.030864574 0.014664956 0.042845942 -0.045108546 0.027700024 0.015495914 -0.01357045
-0.04338678 0.0944504 -0.0053411485 -0.077823445 0.056040548 -0.08086904 0.045749407 0.06854873
-0.023242429 0.0006037579 0.057247393 0.05577974 -0.09556439 0.07909305 -0.05106444 0.005780362
-0.03629453 -0.087180175 0.012303738 -0.006706897 0.04102575 0.004513937 -0.0513496 0.009166509
0.10028675 0.034471873 -0.0701822 -0.050739065 0.040279504 -0.091896445 0.021446949 0.013078676
0.0604502 0.06374204 0.02236119 0.056764323 0.002794914 -0.00042244792 0.052008428 -0.08729126
-0.05832656 0.007764426 -0.081159994 0.035517577 0.044332325 -0.04869548 -0.031721532 -0.035273775
0.04134589 -0.021486256 -0.030622518 -0.072235115 0.014585811 -0.007581541 0.05279869 -0.023752712
0.05046478 -0.023612838 0.06447569 -0.064020514 0.06814827 0.018394249 0.0031669685 -0.066493355
-0.030244503 -0.02996821 -0.08092692 0.033733316 0.056106742 -0.024855062 0.021306705 0.041191466
0.06246154 0.06528047 0.098065294 -0.053166293 0.062372208 -0.07825103 0.014317932 -0.041812092
0.058489278 0.035236582 -0.0702349 0.02763161 -0.059993975 0.0692307 -0.006034896 -0.072995886
-0.021656089 0.09830781 0.042068925 0.040786516 0.07913796 -0.015629543 0.045412745 0.062186144
0.013863768 0.07501836 -0.007887556 -0.044704445 -0.06548652 -0.08074258 -0.04439851 0.045961995
0.04257755 -0.011628555 0.030018192 0.1116071 -0.016256481 0.075667866 0.020880418 0.06694247
0.10534218 -0.06031521 -0.05526014 -0.027899677 -0.03235266 -0.060530752 -0.06562405 0.04147962
0.050772358 0.089012586 -0.0056137745 0.054760363 -0.11126638 0.011150436 -0.027724208 0.0042891884
-0.004708017 0.058955934 -0.019466624 -0.010455621 0.008789676 -0.0039468063 -0.053296383 0.08279994
0.06800189 0.06937458 -0.030168686 0.09120917 -0.061250187 0.08155073 -0.00179769 0.0056688804
-0.027033137 -0.0073722624 -0.02034347 -0.028033521 0.078522034 -0.11125053 -0.057388384 -0.039602656
-0.07458908 -0.05285383 0.044953644 0.03491841 -0.07369013 -0.08198427 0.0834612 -0.063270256
0.074736 0.047079124 -0.0712847 0.05088151 -0.070267 -0.057528768 0.021150459 -0.06506437
00000000: e222 953d 1a4c 5fbd 8659 6d3c 9cb7 4c3d
00000010: 1d32 d73d c6fb c13d 1412 bf3d ea02 acbd
00000020: 509f 49bc e6de 0abd f70e cc3d b2da 8b3d
00000030: dac0 b2bd c1fa 08bd 6ee9 8fbd 2400 95bd
00000040: 52e5 8bbd 8db6 87bd 7513 4f3d 15cd 44bc
00000050: cdad 353d 50c6 a5bd 0860 363d f15e 9abc
00000060: 5385 903d b4d7 fc3c 4945 703c 3a7f 2f3d
00000070: bdc3 38bd 29eb e23c 93e2 7d3c 9856 5ebc
00000080: 56b6 31bd 366f c13d cd04 afbb e661 9fbd
00000090: c68a 653d ab9e a5bd bb63 3b3d 4763 8c3d
000000a0: e866 bebc 8245 1e3a 3e7c 6a3d 4c79 643d
000000b0: 43b7 c3bd 89fb a13d f228 51bd 3169 bd3b
000000c0: 93a9 14bd 858b b2bd 9e95 493c 88c5 dbbb
000000d0: 9e0a 283d a6e9 933b f553 52bd 202f 163c
000000e0: 2463 cd3d 6132 0d3d afbb 8fbd c4d3 4fbd
000000f0: 1ffc 243d 3434 bcbd 83b1 af3c f147 563c
00000100: a19a 773d 308b 823d d02e b73c b581 683d
00000110: e02a 373b 007c ddb9 ca06 553d c3c5 b2bd
00000120: d5e7 6ebd ba6c fe3b 3637 a6bd e17a 113d
00000130: d095 353d e974 47bd 70ee 01bd 3c7b 10bd
00000140: 4f5a 293d f203 b0bc 13dc fabc 01f0 93bd
00000150: 53f9 6e3c 936e f8bb 7043 583d 0c95 c2bc
00000160: 28b4 4e3d b66f c1bc d50b 843d 301d 83bd
00000170: 5291 8b3d 89af 963c ea8c 4f3b ab2d 88bd
00000180: 52c3 f7bc e47f f5bc 03bd a5bd f22b 0a3d
00000190: 2fd0 653d d89c cbbc 668b ae3c 62b8 283d
000001a0: acd7 7f3d c4b1 853d 75d6 c83d e6c4 59bd
000001b0: 007a 7f3d 1342 a0bd c295 6a3c 2843 2bbd
000001c0: 7492 6f3d 3c54 103d 51d7 8fbd b05b e23c
000001d0: 3ebc 75bd d3c8 8d3d 60c0 c5bb de7e 95bd
000001e0: 1c68 b1bc 9b55 c93d 7750 2c3d c30f 273d
000001f0: 1513 a23d 8709 80bc b702 3a3d e6b6 7e3d
00000200: dc24 633c 3aa3 993d cf3a 01bc 021c 37bd
00000210: cc1d 86bd 5e5c a5bd 36db 35bd a542 3c3d
00000220: cc65 2e3d b285 3ebc b6e8 f53c 4392 e43d
00000230: 502c 85bc c1f7 9a3d 690d ab3c 2219 893d
00000240: a4bd d73d 150d 77bd 7558 62bd dd8d e4bc
00000250: 3984 04bd 18ef 77bd e765 86bd 89e6 293d
00000260: adf6 4f3d 3b4c b63d c1f3 b7bb 674c 603d
00000270: a1df e3bd 51b0 363c e11d e3bc 528c 8c3b
00000280: b645 9abb c77b 713d 7878 9fbc 0e4e 2bbc
00000290: 9302 103c 3654 81bb 4f4d 5abd 0493 a93d
000002a0: 9344 8b3d 4314 8e3d 5224 f7bc e0cb ba3d
000002b0: 7ae1 7abd 1204 a73d 78a0 ebba 04c2 b93b
000002c0: 9974 ddbc 0593 f1bb 59a7 a6bc 8ea6 e5bc
000002d0: 29d0 a03d 51d7 e3bd 1510 6bbd 6536 22bd
000002e0: 29c2 98bd 427d 58bd 5021 383d 9b06 0f3d
000002f0: daea 96bd 5ee7 a7bd b5ed aa3d d693 81bd
00000300: 300f 993d 0ad6 403d b6fd 91bd 2169 503d
00000310: 25e8 8fbd 49a3 6bbd ba43 ad3c 7840 85bd

bias f4 [2]
-0.03676615 -0.0008475878
00000000: 1a98 16bd a830 5eba
